…
a_path": null, "zip": false, "cache_mode": "part", "pretrained": null, "resume": null, "accumulation_steps": null, "use_checkpoint": false, "disable_amp": false, "amp_opt_level": null, "output": "output", "tag": null, "eval": false, "throughput": false, "local_rank": 0, "fused_window_process": false, "fused_layernorm": false, "optim": null}
[2026-05-05 16:57:59 swinv2_tiny_patch4_window16_256] (main.py 93): INFO Creating model:swinv2/swinv2_tiny_patch4_window16_256
[2026-05-05 16:57:59 swinv2_tiny_patch4_window16_256] (main.py 95): INFO SwinTransformerV2(
  (patch_embed): PatchEmbed(
    (proj): Conv2d(3, 96, kernel_size=(4, 4), stride=(4, 4))
    (norm): LayerNorm((96,), eps=1e-05, elementwise_affine=True)
  )
  (pos_drop): Dropout(p=0.0, inplace=False)
  (layers): ModuleList(
    (0): BasicLayer(
      dim=96, input_resolution=(64, 64), depth=2
      (blocks): ModuleList(
        (0): SwinTransformerBlock(
          dim=96, input_resolution=(64, 64), num_heads=3, window_size=16, shift_size=0, mlp_ratio=4.0
          (norm1): LayerNorm((96,), eps=1e-05, elementwise_affine=True)
          (attn): WindowAttention(
            dim=96, window_size=(16, 16), pretrained_window_size=(0, 0), num_heads=3
            (cpb_mlp): Sequential(
              (0): Linear(in_features=2, out_features=512, bias=True)
              (1): ReLU(inplace=True)
              (2): Linear(in_features=512, out_features=3, bias=False)
            )
            (qkv): Linear(in_features=96, out_features=288, bias=False)
            (attn_drop): Dropout(p=0.0, inplace=False)
            (proj): Linear(in_features=96, out_features=96, bias=True)
            (proj_drop): Dropout(p=0.0, inplace=False)
            (softmax): Softmax(dim=-1)
          )
          (drop_path): Identity()
          (norm2): LayerNorm((96,), eps=1e-05, elementwise_affine=True)
          (mlp): Mlp(
            (fc1): Linear(in_features=96, out_features=384, bias=True)
            (act): GELU(approximate='none')
            (fc2): Linear(in_features=384, out_features=96, bias=True)
            (drop): Dropout(p=0.0, inplace=False)
          )
        )
        (1): SwinTransformerBlock(
          dim=96, input_resolution=(64, 64), num_heads=3, window_size=16, shift_size=8, mlp_ratio=4.0
          (norm1): LayerNorm((96,), eps=1e-05, elementwise_affine=True)
          (attn): WindowAttention(
            dim=96, window_size=(16, 16), pretrained_window_size=(0, 0), num_heads=3
            (cpb_mlp): Sequential(
              (0): Linear(in_features=2, out_features=512, bias=True)
              (1): ReLU(inplace=True)
              (2): Linear(in_features=512, out_features=3, bias=False)
            )
            (qkv): Linear(in_features=96, out_features=288, bias=False)
            (attn_drop): Dropout(p=0.0, inplace=False)
            (proj): Linear(in_features=96, out_features=96, bias=True)
            (proj_drop): Dropout(p=0.0, inplace=False)
            (softmax): Softmax(dim=-1)
          )
          (drop_path): DropPath()
          (norm2): LayerNorm((96,), eps=1e-05, elementwise_affine=True)
          (mlp): Mlp(
            (fc1): Linear(in_features=96, out_features=384, bias=True)
            (act): GELU(approximate='none')
            (fc2): Linear(in_features=384, out_features=96, bias=True)
            (drop): Dropout(p=0.0, inplace=False)
          )
        )
      )
      (downsample): PatchMerging(
        input_resolution=(64, 64), dim=96
        (reduction): Linear(in_features=384, out_features=192, bias=False)
        (norm): LayerNorm((192,), eps=1e-05, elementwise_affine=True)
      )
    )
    (1): BasicLayer(
      dim=192, input_resolution=(32, 32), depth=2
      (blocks): ModuleList(
        (0): SwinTransformerBlock(
          dim=192, input_resolution=(32, 32), num_heads=6, window_size=16, shift_size=0, mlp_ratio=4.0
          (norm1): LayerNorm((192,), eps=1e-05, elementwise_affine=True)
          (attn): WindowAttention(
            dim=192, window_size=(16, 16), pretrained_window_size=(0, 0), num_heads=6
            (cpb_mlp): Sequential(
              (0): Linear(in_features=2, out_features=512, bias=True)
              (1): ReLU(inplace=True)
              (2): Linear(in_features=512, out_features=6, bias=False)
            )
            (qkv): Linear(in_features=192, out_features=576, bias=False)
            (attn_drop): Dropout(p=0.0, inplace=False)
            (proj): Linear(in_features=192, out_features=192, bias=True)
            (proj_drop): Dropout(p=0.0, inplace=False)
            (softmax): Softmax(dim=-1)
          )
          (drop_path): DropPath()
          (norm2): LayerNorm((192,), eps=1e-05, elementwise_affine=True)
          (mlp): Mlp(
            (fc1): Linear(in_features=192, out_features=768, bias=True)
            (act): GELU(approximate='none')
            (fc2): Linear(in_features=768, out_features=192, bias=True)
            (drop): Dropout(p=0.0, inplace=False)
          )
        )
        (1): SwinTransformerBlock(
          dim=192, input_resolution=(32, 32), num_heads=6, window_size=16, shift_size=8, mlp_ratio=4.0
          (norm1): LayerNorm((192,), eps=1e-05, elementwise_affine=True)
          (attn): WindowAttention(
            dim=192, window_size=(16, 16), pretrained_window_size=(0, 0), num_heads=6
            (cpb_mlp): Sequential(
              (0): Linear(in_features=2, out_features=512, bias=True)
              (1): ReLU(inplace=True)
              (2): Linear(in_features=512, out_features=6, bias=False)
            )
            (qkv): Linear(in_features=192, out_features=576, bias=False)
            (attn_drop): Dropout(p=0.0, inplace=False)
            (proj): Linear(in_features=192, out_features=192, bias=True)
            (proj_drop): Dropout(p=0.0, inplace=False)
            (softmax): Softmax(dim=-1)
          )
          (drop_path): DropPath()
          (norm2): LayerNorm((192,), eps=1e-05, elementwise_affine=True)
          (mlp): Mlp(
            (fc1): Linear(in_features=192, out_features=768, bias=True)
            (act): GELU(approximate='none')
            (fc2): Linear(in_features=768, out_features=192, bias=True)
            (drop): Dropout(p=0.0, inplace=False)
          )
        )
      )
      (downsample): PatchMerging(
        input_resolution=(32, 32), dim=192
        (reduction): Linear(in_features=768, out_features=384, bias=False)
        (norm): LayerNorm((384,), eps=1e-05, elementwise_affine=True)
      )
    )
    (2): BasicLayer(
      dim=384, input_resolution=(16, 16), depth=6
      (blocks): ModuleList(
        (0): SwinTransformerBlock(
          dim=384, input_resolution=(16, 16), num_heads=12, window_size=16, shift_size=0, mlp_ratio=4.0
          (norm1): LayerNorm((384,), eps=1e-05, elementwise_affine=True)
          (attn): WindowAttention(
            dim=384, window_size=(16, 16), pretrained_window_size=(0, 0), num_heads=12
            (cpb_mlp): Sequential(
              (0): Linear(in_features=2, out_features=512, bias=True)
              (1): ReLU(inplace=True)
              (2): Linear(in_features=512, out_features=12, bias=False)
            )
            (qkv): Linear(in_features=384, out_features=1152, bias=False)
            (attn_drop): Dropout(p=0.0, inplace=False)
            (proj): Linear(in_features=384, out_features=384, bias=True)
            (proj_drop): Dropout(p=0.0, inplace=False)
            (softmax): Softmax(dim=-1)
          )
          (drop_path): DropPath()
          (norm2): LayerNorm((384,), eps=1e-05, elementwise_affine=True)
          (mlp): Mlp(
            (fc1): Linear(in_features=384, out_features=1536, bias=True)
            (act): GELU(approximate='none')
            (fc2): Linear(in_features=1536, out_features=384, bias=True)
            (drop): Dropout(p=0.0, inplace=False)
          )
        )
        (1): SwinTransformerBlock(
          dim=384, input_resolution=(16, 16), num_heads=12, window_size=16, shift_size=0, mlp_ratio=4.0
          (norm1): LayerNorm((384,), eps=1e-05, elementwise_affine=True)
          (attn): WindowAttention(
            dim=384, window_size=(16, 16), pretrained_window_size=(0, 0), num_heads=12
            (cpb_mlp): Sequential(
              (0): Linear(in_features=2, out_features=512, bias=True)
              (1): ReLU(inplace=True)
              (2): Linear(in_features=512, out_features=12, bias=False)
            )
            (qkv): Linear(in_features=384, out_features=1152, bias=False)
            (attn_drop): Dropout(p=0.0, inplace=False)
            (proj): Linear(in_features=384, out_features=384, bias=True)
            (proj_drop): Dropout(p=0.0, inplace=False)
            (softmax): Softmax(dim=-1)
          )
          (drop_path): DropPath()
          (norm2): LayerNorm((384,), eps=1e-05, elementwise_affine=True)
          (mlp): Mlp(
            (fc1): Linear(in_features=384, out_features=1536, bias=True)
            (act): GELU(approximate='none')
            (fc2): Linear(in_features=1536, out_features=384, bias=True)
            (drop): Dropout(p=0.0, inplace=False)
          )
        )
        (2): SwinTransformerBlock(
          dim=384, input_resolution=(16, 16), num_heads=12, window_size=16, shift_size=0, mlp_ratio=4.0
          (norm1): LayerNorm((384,), eps=1e-05, elementwise_affine=True)
          (attn): WindowAttention(
            dim=384, window_size=(16, 16), pretrained_window_size=(0, 0), num_heads=12
            (cpb_mlp): Sequential(
              (0): Linear(in_features=2, out_features=512, bias=True)
              (1): ReLU(inplace=True)
              (2): Linear(in_features=512, out_features=12, bias=False)
            )
            (qkv): Linear(in_features=384, out_features=1152, bias=False)
            (attn_drop): Dropout(p=0.0, inplace=False)
            (proj): Linear(in_features=384, out_features=384, bias=True)
            (proj_drop): Dropout(p=0.0, inplace=False)
            (softmax): Softmax(dim=-1)
          )
          (drop_path): DropPath()
          (norm2): LayerNorm((384,), eps=1e-05, elementwise_affine=True)
          (mlp): Mlp(
            (fc1): Linear(in_features=384, out_features=1536, bias=True)
            (act): GELU(approximate='none')
            (fc2): Linear(in_features=1536, out_features=384, bias=True)
            (drop): Dropout(p=0.0, inplace=False)
          )
        )
        (3): SwinTransformerBlock(
          dim=384, input_resolution=(16, 16), num_heads=12, window_size=16, shift_size=0, mlp_ratio=4.0
          (norm1): LayerNorm((384,), eps=1e-05, elementwise_affine=True)
          (attn): WindowAttention(
            dim=384, window_size=(16, 16), pretrained_window_size=(0, 0), num_heads=12
            (cpb_mlp): Sequential(
              (0): Linear(in_features=2, out_features=512, bias=True)
              (1): ReLU(inplace=True)
              (2): Linear(in_features=512, out_features=12, bias=False)
            )
            (qkv): Linear(in_features=384, out_features=1152, bias=False)
            (attn_drop): Dropout(p=0.0, inplace=False)
            (proj): Linear(in_features=384, out_features=384, bias=True)
            (proj_drop): Dropout(p=0.0, inplace=False)
            (softmax): Softmax(dim=-1)
          )
          (drop_path): DropPath()
          (norm2): LayerNorm((384,), eps=1e-05, elementwise_affine=True)
          (mlp): Mlp(
            (fc1): Linear(in_features=384, out_features=1536, bias=True)
            (act): GELU(approximate='none')
            (fc2): Linear(in_features=1536, out_features=384, bias=True)
            (drop): Dropout(p=0.0, inplace=False)
          )
        )
        (4): SwinTransformerBlock(
          dim=384, input_resolution=(16, 16), num_heads=12, window_size=16, shift_size=0, mlp_ratio=4.0
          (norm1): LayerNorm((384,), eps=1e-05, elementwise_affine=True)
          (attn): WindowAttention(
            dim=384, window_size=(16, 16), pretrained_window_size=(0, 0), num_heads=12
            (cpb_mlp): Sequential(
              (0): Linear(in_features=2, out_features=512, bias=True)
              (1): ReLU(inplace=True)
              (2): Linear(in_features=512, out_features=12, bias=False)
            )
            (qkv): Linear(in_features=384, out_features=1152, bias=False)
            (attn_drop): Dropout(p=0.0, inplace=False)
            (proj): Linear(in_features=384, out_features=384, bias=True)
            (proj_drop): Dropout(p=0.0, inplace=False)
            (softmax): Softmax(dim=-1)
          )
          (drop_path): DropPath()
          (norm2): LayerNorm((384,), eps=1e-05, elementwise_affine=True)
          (mlp): Mlp(
            (fc1): Linear(in_features=384, out_features=1536, bias=True)
            (act): GELU(approximate='none')
            (fc2): Linear(in_features=1536, out_features=384, bias=True)
            (drop): Dropout(p=0.0, inplace=False)
          )
        )
        (5): SwinTransformerBlock(
          dim=384, input_resolution=(16, 16), num_heads=12, window_size=16, shift_size=0, mlp_ratio=4.0
          (norm1): LayerNorm((384,), eps=1e-05, elementwise_affine=True)
          (attn): WindowAttention(
            dim=384, window_size=(16, 16), pretrained_window_size=(0, 0), num_heads=12
            (cpb_mlp): Sequential(
              (0): Linear(in_features=2, out_features=512, bias=True)
              (1): ReLU(inplace=True)
              (2): Linear(in_features=512, out_features=12, bias=False)
            )
            (qkv): Linear(in_features=384, out_features=1152, bias=False)
            (attn_drop): Dropout(p=0.0, inplace=False)
            (proj): Linear(in_features=384, out_features=384, bias=True)
            (proj_drop): Dropout(p=0.0, inplace=False)
            (softmax): Softmax(dim=-1)
          )
          (drop_path): DropPath()
          (norm2): LayerNorm((384,), eps=1e-05, elementwise_affine=True)
          (mlp): Mlp(
            (fc1): Linear(in_features=384, out_features=1536, bias=True)
            (act): GELU(approximate='none')
            (fc2): Linear(in_features=1536, out_features=384, bias=True)
            (drop): Dropout(p=0.0, inplace=False)
          )
        )
      )
      (downsample): PatchMerging(
        input_resolution=(16, 16), dim=384
        (reduction): Linear(in_features=1536, out_features=768, bias=False)
        (norm): LayerNorm((768,), eps=1e-05, elementwise_affine=True)
      )
    )
    (3): BasicLayer(
      dim=768, input_resolution=(8, 8), depth=2
      (blocks): ModuleList(
        (0): SwinTransformerBlock(
          dim=768, input_resolution=(8, 8), num_heads=24, window_size=8, shift_size=0, mlp_ratio=4.0
          (norm1): LayerNorm((768,), eps=1e-05, elementwise_affine=True)
          (attn): WindowAttention(
            dim=768, window_size=(8, 8), pretrained_window_size=(0, 0), num_heads=24
            (cpb_mlp): Sequential(
              (0): Linear(in_features=2, out_features=512, bias=True)
              (1): ReLU(inplace=True)
              (2): Linear(in_features=512, out_features=24, bias=False)
            )
            (qkv): Linear(in_features=768, out_features=2304, bias=False)
            (attn_drop): Dropout(p=0.0, inplace=False)
            (proj): Linear(in_features=768, out_features=768, bias=True)
            (proj_drop): Dropout(p=0.0, inplace=False)
            (softmax): Softmax(dim=-1)
          )
          (drop_path): DropPath()
          (norm2): LayerNorm((768,), eps=1e-05, elementwise_affine=True)
          (mlp): Mlp(
            (fc1): Linear(in_features=768, out_features=3072, bias=True)
            (act): GELU(approximate='none')
            (fc2): Linear(in_features=3072, out_features=768, bias=True)
            (drop): Dropout(p=0.0, inplace=False)
          )
        )
        (1): SwinTransformerBlock(
          dim=768, input_resolution=(8, 8), num_heads=24, window_size=8, shift_size=0, mlp_ratio=4.0
          (norm1): LayerNorm((768,), eps=1e-05, elementwise_affine=True)
          (attn): WindowAttention(
            dim=768, window_size=(8, 8), pretrained_window_size=(0, 0), num_heads=24
            (cpb_mlp): Sequential(
              (0): Linear(in_features=2, out_features=512, bias=True)
              (1): ReLU(inplace=True)
              (2): Linear(in_features=512, out_features=24, bias=False)
            )
            (qkv): Linear(in_features=768, out_features=2304, bias=False)
            (attn_drop): Dropout(p=0.0, inplace=False)
            (proj): Linear(in_features=768, out_features=768, bias=True)
            (proj_drop): Dropout(p=0.0, inplace=False)
            (softmax): Softmax(dim=-1)
          )
          (drop_path): DropPath()
          (norm2): LayerNorm((768,), eps=1e-05, elementwise_affine=True)
          (mlp): Mlp(
            (fc1): Linear(in_features=768, out_features=3072, bias=True)
            (act): GELU(approximate='none')
            (fc2): Linear(in_features=3072, out_features=768, bias=True)
            (drop): Dropout(p=0.0, inplace=False)
          )
        )
      )
    )
  )
  (norm): LayerNorm((768,), eps=1e-05, elementwise_affine=True)
  (avgpool): AdaptiveAvgPool1d(output_size=1)
  (head): Linear(in_features=768, out_features=100, bias=True)
)
[2026-05-05 16:57:59 swinv2_tiny_patch4_window16_256] (main.py 98): INFO number of params: 27655054
[2026-05-05 16:57:59 swinv2_tiny_patch4_window16_256] (main.py 101): INFO number of GFLOPs: 6.604483584
[2026-05-05 16:57:59 swinv2_tiny_patch4_window16_256] (main.py 135): INFO no checkpoint found in output/swinv2_tiny_patch4_window16_256/default, ignoring auto resume
…
